checkpoints/forward_dynamics.pth (torch, 101272 bytes, 4 tensors)

fc.0.weight f4 [128, 128]
000000 f8 bc 42 37 cd 97 7c 3d e3 b9 a7 bd 8f 0b c0 3d
       1.1607299e-05 0.061668206 -0.08189752 0.093772046
000010 64 a8 bf 3d f2 f7 af bc 6d 65 d2 bd a2 ba a1 bb
       0.0935829 -0.021480534 -0.10273252 -0.0049355784
000020 e4 37 c2 3c ce 52 94 3d f1 78 58 3d cf 9a a7 bd
       0.023708291 0.07242356 0.052849714 -0.08183824
000030 e0 61 eb 3c e4 08 9b bd c5 ba 98 bd 1a 93 a5 3c
       0.028733194 -0.07570055 -0.074574985 0.020211745
000040 43 9c 3e bd e1 b9 3b bd a4 81 51 bd a5 37 e7 3d
       -0.04653574 -0.045831565 -0.051149026 0.1128991
000050 57 27 46 bd 57 65 3f 3d 67 38 d3 3c 01 40 3a bd
       -0.04837736 0.046727505 0.02578373 -0.045471195
000060 b5 48 02 bc 56 87 71 bc b0 5d 2c bd e2 2c ea bc
       -0.007951905 -0.014741739 -0.042081535 -0.028585855
000070 04 b9 27 3d 9d de 29 3d 9d 57 54 3d 8c e0 31 3d
       0.04094793 0.041472066 0.051841367 0.043427035
000080 54 11 db 3c 01 0c 15 3d a8 0d 17 be 48 71 3c bd
       0.026741661 0.0363884 -0.14751303 -0.04600647
000090 55 31 d4 3d ce cf bc bb c3 2a 43 ba c2 51 6d 3c
       0.10360972 -0.005762077 -0.00074450317 0.014484825
0000a0 54 d4 b8 bc 90 52 1a bd 98 46 36 bd 49 42 89 3d
       -0.022562183 -0.037676394 -0.044500917 0.06702096
0000b0 f4 bb 86 bc 84 77 48 3c 4e e1 8c bd 9f db 3a 3d
       -0.016447045 0.012235526 -0.06878911 0.045619603
0000c0 01 93 84 3d ca 72 a7 3c e5 97 8d bd 58 3e 06 be
       0.06473351 0.020440478 -0.06913737 -0.1310972
0000d0 39 5b 2a 3d 34 26 e9 3d bc 9c 64 3b 83 71 89 3d
       0.041590903 0.1138424 0.003488346 0.06711104
0000e0 33 81 a8 3d 0c d8 cf ba 04 73 e6 3d df 00 c9 bd
       0.08227768 -0.0015857234 0.11252406 -0.09814619
0000f0 a9 ad c9 3b 4c 74 d7 bc b6 e5 cd bd db 0a f4 3d
       0.006154735 -0.026300572 -0.100535795 0.11916133
000100 5c de 4c 3c bd c8 cc 3c 54 5b 77 3d 07 4e 47 bb
       0.0125041865 0.024998063 0.06038983 -0.0030411498
000110 f7 ec 98 3d e4 b9 0f bd 40 e7 8d bc 0c de 82 3d
       0.074670725 -0.03508939 -0.017322183 0.06390008
000120 b7 99 ff 3c b6 62 11 3c 8f 2b b4 3d cd f9 e2 3c
       0.031201227 0.008873632 0.08797371 0.027707005
000130 2b 0b a0 bc 9d ae d7 3c 1f e0 b7 3d b3 51 87 bd
       -0.019536575 0.02632838 0.089782946 -0.0660738
000140 8a bd bf 3d 2c 10 86 bd bf 1a ee 3c db da 6c 3d
       0.093623236 -0.06546053 0.029065488 0.057825904
000150 eb 2a 3c bd a9 ac 28 3d b7 75 32 3d b1 fc 06 3d
       -0.045939367 0.041180287 0.043569293 0.03295583
000160 db ed 92 bd bf 66 a1 3d d4 92 bb 3d 89 03 4b bd
       -0.071742736 0.078809254 0.091588646 -0.04956392
000170 52 18 f5 3a 7e a3 1b 3d a3 74 c5 3d 1a 0d 7a bd
       0.0018699265 0.037997715 0.09641387 -0.06104765
000180 fa d5 e7 3c a1 be d3 bd 61 10 a2 3b 91 e5 02 3d
       0.028300274 -0.10339094 0.0049458 0.031957213
000190 ea 70 09 3d b7 9a 24 bd 70 ca 92 bb 6b ae fa 3c
       0.03355495 -0.04018661 -0.004479699 0.030600747
0001a0 f1 e5 db 3b 91 72 a9 3b d1 c0 de bb 14 cb 83 ba
       0.0067107608 0.005171128 -0.006797888 -0.0010055029
0001b0 1b 19 86 3d b6 27 e8 3c b4 32 86 3d ba 17 3d bc
       0.06547757 0.028339248 0.065526396 -0.011541301
0001c0 6c fc 27 3d 66 7f 83 bd e1 17 03 bd 9c 36 3e 3d
       0.041012213 -0.06420784 -0.032005195 0.0464388
0001d0 e0 84 73 3d f5 fe 1d 3d 26 c2 d7 3c 88 30 50 bd
       0.05945289 0.038573224 0.026337694 -0.050827533
0001e0 1b 7f c2 bd ae 2b 08 bd 1e 38 bf bd 2f dc 9a bc
       -0.094969 -0.03324478 -0.093368754 -0.01890382
0001f0 e7 aa d3 bd 49 ff 00 bd 08 23 e9 bb d9 42 90 3c
       -0.103353314 -0.03149346 -0.0071147718 0.01761
000200 64 d8 cc bd 14 a8 97 bd 73 88 4d 3d a9 a3 50 3c
       -0.10002211 -0.07405105 0.050178956 0.012734332
000210 55 a2 b2 bc 8a 67 23 bd 74 b1 a3 bd f8 18 b9 bd
       -0.021805922 -0.039893664 -0.07992831 -0.090379655
000220 98 c0 83 3d 71 74 2b 3d 14 9c bb bd c3 19 81 3d
       0.06433219 0.041859094 -0.09160629 0.06303742
000230 32 c1 98 3d d7 dd 44 bd a0 bf 96 3c 20 ea 43 bc
       0.07458724 -0.048063125 0.01840192 -0.011957675
000240 72 6e 4b bd ad 6b ea 3c 7c 11 02 bd f6 d5 3d 3d
       -0.049665876 0.028615797 -0.031754956 0.046346627
000250 84 2a 9a 3d e2 f8 c3 3d 71 99 49 bc 36 28 aa bd
       0.075276405 0.09568955 -0.01230465 -0.08308451
000260 60 fd 27 bb b6 8f 53 3d 73 8e a2 3d a3 b5 a7 bd
       -0.00256332 0.051650725 0.07937326 -0.08188941
000270 41 4f 11 3d cf 1a b0 3b c8 09 29 bd a3 b7 47 3d
       0.035475973 0.0053742896 -0.041269094 0.048759114
000280 37 ea 11 3d cf 06 57 3d 88 05 9e bd 79 89 0b bd
       0.035623755 0.052496728 -0.07715899 -0.03406665
000290 2a df 24 3d ff 41 fb 3c 2d 6c 1c bd 83 9f a5 bc
       0.04025189 0.030671118 -0.038189102 -0.020217663
0002a0 49 cd b8 bd f7 b4 1e bb 21 b4 86 bd 2d 52 72 3d
       -0.0902353 -0.002421675 -0.065773256 0.0591604
0002b0 5f df 2c 3d a3 28 c4 bd 17 4a 96 bd ed 2c 18 bc
       0.04220521 -0.09578063 -0.0733835 -0.009288055
0002c0 b9 70 a2 bd ce 88 3c 3d df 29 0d 3d a7 fe ac bd
       -0.079316564 0.046028905 0.03446376 -0.084470086
0002d0 fa 31 ae 3c f3 ce 8b 3c db 16 6c bd 3c 21 61 bd
       0.021264065 0.017066455 -0.057638984 -0.054963335
0002e0 5b 5b 99 bb bc 60 0e 3d df 8e bd 3c ca 91 f3 bc
       -0.00468008 0.03476022 0.023139415 -0.029732604
0002f0 86 99 bc bd 28 73 99 bd 10 8a c9 bc 5c 63 13 3d
       -0.0920897 -0.074926674 -0.024601966 0.03598343
000300 ee 6c 2f 3d 5f 49 01 bc b7 f7 86 bd 99 b3 c1 3d
       0.042828493 -0.007891028 -0.065902166 0.09458084
000310 07 f1 ec 3c f2 27 6a bd 42 91 8d 3c 64 21 42 3d
       0.028923525 -0.057167 0.017281178 0.047395125
000320 ce dc e1 3d a5 63 53 3d b2 91 0a bd c9 4d 2a bd
       0.11028443 0.0516087 -0.033830352 -0.041578088
000330 e4 dc 14 3d 2a 68 42 3c 97 f8 ae bd 65 1c b5 3b
       0.03634347 0.011865655 -0.085435085 0.0055270665
000340 16 2e 3c 3d 07 fc d5 bc 7a 92 c2 3b ae 6f a8 3d
       0.04594239 -0.026121153 0.0059378715 0.08224426
000350 af ad 82 3c d4 5e ce bd 9c 81 03 3c 6f f6 cb bc
       0.01595196 -0.10076681 0.008026507 -0.024897782
000360 88 21 65 bc 2c f7 9b 3d 4e 41 6b 3c ee 49 a1 3d
       -0.013985045 0.07615504 0.014358832 0.07875429
000370 f9 8a 11 bc a6 53 4f bd a4 1d 4e bd f7 c4 c0 3b
       -0.008883231 -0.050616883 -0.050321236 0.005882855
000380 ab ec 1a bd bb 67 1b be e0 a0 72 3d 63 3c 91 3d
       -0.03782336 -0.15176289 0.059235454 0.07091596
000390 41 39 4a 3d 2f 6d 63 bd 84 8a ad 3c 5d c6 b8 3d
       0.049371008 -0.055524047 0.021184213 0.0902221
0003a0 dd 5e 8a 3c db 25 8c 3c 8d 2a 4b bd 72 93 ae bc
       0.016890937 0.017107895 -0.049601126 -0.021310542
0003b0 0d c0 8a 3c f9 24 84 bd 24 39 99 3d 4c cf 49 3d
       0.01693728 -0.064523645 0.07481602 0.04926996
0003c0 8b 13 9b bc 6a 31 ed bd 94 ac c5 3b 92 dd 4d 3d
       -0.018930217 -0.115816906 0.006032536 0.050260134
0003d0 e8 4e b4 ba c9 a2 9b bd c1 9f 3d 3d 5b 38 a5 3d
       -0.0013756426 -0.07599408 0.04629493 0.080673896
0003e0 e0 3d 6d bc 78 d3 27 3d 2a 39 92 bd 6d da 96 bd
       -0.014480084 0.040973157 -0.071398094 -0.0736588
0003f0 a5 95 66 bd 84 d1 20 bc 1e 62 ef bb ae 04 bb bd
       -0.056295056 -0.009815577 -0.0073053977 -0.09131752

fc.0.bias f4 [128]
000000 d3 8e 3b 3d dd e0 f9 3c 23 8a ad bd 41 76 57 bb
       0.045790505 0.030502731 -0.08473613 -0.0032876881
000010 fb 52 99 bd 34 f3 ca bc 59 5e fc 36 b3 d4 b9 bc
       -0.074865304 -0.024774171 7.5211688e-06 -0.02268443
000020 f6 8e 34 3d 69 bd da bc 9a 81 55 bc d0 1a c4 bd
       0.04408165 -0.026701646 -0.013031388 -0.095754266
000030 34 46 2e 3d a9 76 5b 3d ed 51 77 3d bf 57 1a 3d
       0.04254742 0.05357996 0.060380865 0.037681337
000040 a3 88 51 3d 43 6e 13 3d e7 c2 f3 3c 72 5f b4 bd
       0.051155698 0.035993826 0.029756023 -0.08807267
000050 3b 33 78 bc 37 e1 2a bd 4b b5 94 bd db 99 29 3c
       -0.015148933 -0.041718688 -0.072611414 0.010351623
000060 65 06 aa bd 10 33 29 bd 21 f8 9f bd 10 d1 0c 3c
       -0.08302001 -0.041308463 -0.07810999 0.008594766
000070 a0 02 bf bd e0 c8 a6 3d 1b 1b 51 3d b1 92 41 3d
       -0.093266726 0.081437826 0.05105124 0.047259036
000080 44 e4 bf bd 6f df ab 3c 80 47 58 bd f1 26 97 3d
       -0.0936971 0.020980565 -0.052802563 0.07380474
000090 4c 69 3f 3c d8 4c 9d 3d 30 34 2a bd 86 61 a7 bd
       0.01168282 0.076806724 -0.041553676 -0.08172898
0000a0 75 91 ea bc d6 8b 48 bd be 04 ab bb f8 56 9e bd
       -0.028633812 -0.048961483 -0.005219071 -0.07731432
0000b0 74 0f cc bd 00 65 21 3d 79 6e e8 3c 31 5c e1 bd
       -0.09963885 0.03940296 0.02837299 -0.11003912
0000c0 45 90 91 3d 1a f3 3d 3d eb 56 87 3d 73 eb 3a bd
       0.07107595 0.046374418 0.06608375 -0.045634698
0000d0 19 68 bf bd 0f 17 88 bc 03 8b cc bd 3f 3b e2 3c
       -0.09346027 -0.016612558 -0.09987452 0.027616141
0000e0 4e da 8d 3d 2a c8 9e 3d a3 33 6f bd ba 87 9a bc
       0.06926404 0.07753022 -0.058398854 -0.018863548
0000f0 9b 6b 08 bd 62 fb 00 bd 80 bf 1f 3d d7 a4 a7 3d
       -0.033305746 -0.031489737 0.039000988 0.081857376
000100 03 db 06 be e6 c6 a9 bc b1 46 50 bc 59 8f b0 3d
       -0.13169484 -0.020724725 -0.012712167 0.086210914
000110 13 e1 d8 3c f1 d0 91 bd d0 a3 bc bd 03 bd 5b 3b
       0.026474511 -0.071199305 -0.09210932 0.0033529408
000120 2a 19 3c bd fe 41 98 bd de 24 c7 3d 43 2b f3 bc
       -0.045922436 -0.07434462 0.09723829 -0.029683715
000130 cb c6 88 bd c1 f7 53 3d 40 d5 ab bd 19 2c 57 3d
       -0.06678542 0.05174995 -0.083902836 0.05253229
000140 0a 66 9d 3d 41 6d 4e bc 12 3b ce bd 6c 23 76 bd
       0.07685478 -0.01259929 -0.100698605 -0.060092375
000150 36 cf 5e bd 9c aa 5e bd 20 35 ce bd a9 d7 30 bd
       -0.05439683 -0.054361925 -0.100687265 -0.04317442
000160 0a 4c 3b bc e4 a6 86 bd 11 94 6a bc 93 3f 91 bd
       -0.011431703 -0.065748006 -0.014317528 -0.07092204
000170 28 4b e4 bd ef 37 14 bd 17 79 ca bd 3f 08 ca bd
       -0.111471474 -0.036186155 -0.09886377 -0.09864854
000180 79 2a a9 3d ed d9 89 3c 70 34 bf bb 3c a3 2b bd
       0.08260054 0.016827548 -0.0058351085 -0.04190372
000190 91 e9 9b bd cb ee 5f 3d 2b 97 24 bc 73 2a 53 bd
       -0.07612909 0.05467109 -0.010045807 -0.051554155
0001a0 bc 6d 6f 3d ed 4e 42 3d 92 87 b3 3d 51 7f c2 bd
       0.05845426 0.04743855 0.08766092 -0.0949694
0001b0 a8 2d d6 bd 96 56 77 3c 99 fa 1d 3d 24 44 cf bd
       -0.10457927 0.015096327 0.038569067 -0.10120419
0001c0 9c 57 9a 3d 39 85 7a bd 0a 78 d6 3c 8e aa ae 3d
       0.075362414 -0.061162207 0.026180286 0.085286245
0001d0 4d b0 f4 3c 94 9d 12 bd d4 f1 ce 3c 22 ea 83 3d
       0.029869223 -0.03579481 0.025261797 0.06441142
0001e0 4a ad 64 3c 78 32 94 3d 34 c8 ae bc f8 61 bc bc
       0.013957331 0.07236189 -0.021335699 -0.022995934
0001f0 04 80 ac bd 19 15 a4 3d a5 d2 a8 bd a8 6a 15 bd
       -0.084228545 0.080118366 -0.08243302 -0.03647867

fc.2.weight f4 [64, 128]
000000 85 30 ab 3a 1e 71 cb bd ca 2a b3 bc f2 17 c6 3d
       0.0013060725 -0.09933685 -0.02187099 0.09672536
000010 db 3f 22 3d 1d b1 7e bc d5 fa 54 3d 1a 89 be bd
       0.03961168 -0.015545157 0.051997025 -0.09303494
000020 10 17 a4 3d b8 7c 03 be 43 a0 07 3a 44 cc 8d bd
       0.08012211 -0.12840545 0.0005173722 -0.06923726
000030 87 43 a4 bc 9f 3c bb 3b 7b f5 92 bd 48 6a 1f bd
       -0.02005173 0.0057140137 -0.07175728 -0.038919717
000040 4c 84 86 3d b6 7d 7c bd d0 77 c2 3d 33 69 bb bc
       0.065682024 -0.061643325 0.09495509 -0.022877311
000050 6b 71 49 bd 18 ae 82 bd 6b f2 bf bc 60 f7 b1 bd
       -0.04918043 -0.06380862 -0.023431024 -0.08689761
000060 61 7e 2c 3d ce 2e d0 bc c9 cd 14 3c e2 1d 38 3d
       0.04211271 -0.025412943 0.009082266 0.044950373
000070 cc 43 47 bc d7 bc d3 3c 73 12 c7 bd 99 cc 2a bd
       -0.01216216 0.025846882 -0.09720316 -0.041699026
000080 fa b8 fa bc e1 8c 78 bd 9e cd a0 3d af c2 4c bd
       -0.030605782 -0.060681228 0.07851718 -0.049990352
000090 d3 7e 3b bc a5 f3 9e 3d 4f 34 03 3d 96 2a 57 b9
       -0.0114438115 0.07761315 0.032032307 -0.00020519862
0000a0 0f 1f 8f 3d 2a 62 5e 3c a8 04 eb bc be b9 53 bd
       0.06988346 0.013573209 -0.028688744 -0.05169081
0000b0 4e 0c 93 3d 05 46 c0 bd 8c 0c a3 bd 95 f7 83 bc
       0.07180081 -0.09388355 -0.079613775 -0.016109267
0000c0 80 23 88 3d 21 71 9b bd 30 72 dd 3c 41 0c a0 bd
       0.06647396 -0.07589937 0.027031988 -0.07814837
0000d0 53 36 92 3d b3 ce 91 3d 85 65 8d 3d 35 7c 4d 3d
       0.07139268 0.07119503 0.06904129 0.05016728
0000e0 f8 26 bc bd dd c4 79 bb 01 04 26 bd 28 11 32 bd
       -0.0918712 -0.0038111724 -0.040531162 -0.043473393
0000f0 fe b5 ff bc fc b3 53 3c 67 a0 76 3d 78 5b 1a 3d
       -0.03121471 0.01292133 0.060211565 0.037684888
000100 1f 27 76 bd ff 89 1e 3c e5 e4 72 3d d9 e6 91 3d
       -0.060095903 0.0096764555 0.059300322 0.07124109
000110 57 0f 3a bd 83 ef ad 3d 3c c3 00 3d 70 bf 29 bd
       -0.045424785 0.08492949 0.03143619 -0.041442335
000120 d1 72 72 3d 00 48 f3 bd 67 dd 2c bd f8 dd 34 bd
       0.05919153 -0.11878967 -0.042203333 -0.044157
000130 89 96 31 bd 9a 9e 5f bd 80 65 9e 3d 24 2f 15 bc
       -0.043356452 -0.054594614 0.07734203 -0.0091054775
000140 6d e8 00 bc 87 45 40 bd a0 e7 95 3c 44 6f 13 bd
       -0.007867915 -0.046941306 0.018298924 -0.035994783
000150 6b 08 52 bd c4 e7 9e bd 3c ee c6 3d b6 b6 cc bb
       -0.05127756 -0.077590495 0.09713408 -0.006247367
000160 04 b2 9f 3d fb 71 0b bd bc 76 c2 3a 04 34 9a bd
       0.07797626 -0.034044247 0.0014836411 -0.075294524
000170 59 15 00 bd 79 de 07 3d 39 8d 82 bd d1 3a ee bc
       -0.03127036 0.03317115 -0.06374592 -0.02908078
000180 0e f3 99 bd 31 06 f6 3c 85 22 6d 3d 04 83 d7 bc
       -0.07517062 0.03003225 0.05789425 -0.02630759
000190 bf 53 87 3d e4 aa 18 bd ee 7a 94 bb 37 ba b7 bd
       0.0660777 -0.03727235 -0.004531256 -0.089710645
0001a0 62 b0 98 bd 4a 27 c3 bb 5b 6a 08 3e 9c 8e 28 3d
       -0.07455517 -0.0059556114 0.13321821 0.041151628
0001b0 be 76 b5 3c 94 c1 03 3d 4e a2 76 bd bf 44 90 bd
       0.022151347 0.032167032 -0.06021338 -0.07044362
0001c0 84 3b 26 3d ec b9 8c 3b 2d aa 06 bd 4e c7 82 3d
       0.040584102 0.0042946246 -0.032877136 0.063856706
0001d0 80 e2 80 bd d4 d0 81 bd b8 4b 85 bd db e7 59 bd
       -0.062932014 -0.06338659 -0.06508583 -0.05319963
0001e0 ca e7 83 3d b0 ee 91 3d cf c9 4b bb 3f 01 37 bd
       0.06440695 0.07125604 -0.003109563 -0.044678923
0001f0 7e 17 41 3d 6c e5 9d bb a7 5f 55 3a c9 d8 da 3c
       0.047141545 -0.004818609 0.00081395585 0.0267147
000200 bc dc a2 bb c0 2a 53 bc af 4a 49 3d 3a 7f a1 3d
       -0.0049701612 -0.01288861 0.04914349 0.07885595
000210 39 52 b5 bd 80 4e 1d 3d c2 a6 2d 3d 31 0c 75 3d
       -0.08853573 0.03840494 0.04239536 0.05982608
000220 75 d9 b8 3d 7c 08 9e 3d 16 66 d6 ba 10 2d 14 3d
       0.09025852 0.07716462 -0.0016357328 0.036175787
000230 5d 7e ac 3d b6 76 e6 3c 09 75 b5 bd 62 b6 1b 3e
       0.084225394 0.028132778 -0.08860213 0.15206292
000240 3e dc 43 bc ff ab 7b bd ca 35 2c 3d 7f e7 04 3d
       -0.011954365 -0.061443325 0.042043485 0.032447334
000250 88 92 72 3d 18 80 a8 bd 5b 67 81 3d 6c d5 db 3d
       0.059221774 -0.08227557 0.063185416 0.10734066
000260 19 61 72 bd f2 9d 1b bd 05 f5 01 bd e0 37 9b bd
       -0.05917463 -0.037992425 -0.03172781 -0.07579017
000270 6c 22 2d 3d 43 30 15 3d 77 cc 73 bd 1f f3 e4 ba
       0.042269155 0.03642298 -0.059521165 -0.0017467475
000280 42 9c 49 3c b2 cb 78 3d 0f ef 67 3d a1 52 b4 bd
       0.012305321 0.060741134 0.05662447 -0.08804823
000290 ed 27 a2 3d 41 a6 c3 3a 42 62 64 bd b4 b1 7d bd
       0.079177715 0.0014926867 -0.05575777 -0.06193705
0002a0 0e 88 e3 3d 44 87 22 3e 9d 9f f6 bd 76 d6 61 3d
       0.11109935 0.15871912 -0.120421626 0.055136167
0002b0 8d 93 87 3c ac a8 2f 3b e4 b5 b1 3d db 4b a1 3d
       0.01654985 0.0026803417 0.08677271 0.078757964
0002c0 b6 26 a3 3d 9a 7f 1f 3e 6d 16 c8 3b e9 3b 31 bb
       0.07966368 0.1557602 0.006106189 -0.0027043766
0002d0 94 75 93 3d fd 1a 10 be ad 86 b3 3d 61 45 ab 3d
       0.072001606 -0.14072795 0.08765922 0.08362842
0002e0 e4 c4 9b bd f4 c6 01 3c 9d 34 aa 3c c2 bd a0 bd
       -0.07605913 0.007920969 0.020777041 -0.078486934
0002f0 d6 a0 bd bd 5e 03 19 bd 62 b9 33 3c 01 f7 81 bd
       -0.09259193 -0.037356727 0.010969492 -0.063459404
000300 11 11 80 bd 2e 6b ff bc b6 84 08 be 07 55 3e 3d
       -0.06253255 -0.031179037 -0.13331875 0.046467807
000310 d3 90 73 3d cb 39 45 3d 8b 04 98 3d 85 ae be 3b
       0.059464287 0.04815082 0.074227415 0.005819144
000320 76 e0 83 3d 67 0e 13 3e 22 52 d3 3c a6 37 01 bd
       0.06439297 0.14360963 0.025796 -0.03154721
000330 15 24 7b 3d c2 8e 2f bd ca aa 16 bb b2 02 bf 3d
       0.061313707 -0.042860754 -0.0022989982 0.09326686
000340 e3 ca 5b 3c 1f 7c ae 3b 03 3b 4d bd 50 57 90 ba
       0.013415071 0.005324855 -0.050105106 -0.0011012349
000350 19 8a bc 3d 74 5a 93 3d 37 01 6b 3d 2b 0c e4 bb
       0.092060275 0.07194987 0.057374205 -0.0069594583
000360 04 9e 3a bd f4 4f f5 3c 96 22 cd bd 61 5c aa bd
       -0.04556085 0.029945351 -0.10016362 -0.08318401
000370 2d af 86 bc c6 03 b9 bc d2 d1 ca bd 55 f8 28 3d
       -0.016440952 -0.022584807 -0.09903301 0.041252453
000380 3e 19 be bc fc 96 a5 bd d3 7c 32 3d cf 1b 85 3c
       -0.023205396 -0.080854386 0.043576073 0.016248612
000390 41 3c 6e 3b 67 0a 68 bc 60 b4 9e 3d 5d e5 f5 3c
       0.0036351832 -0.014162636 0.077492476 0.030016595
0003a0 ee 81 48 3c c2 58 b2 bd ab 4f 7e 3d d6 36 2c bd
       0.012238009 -0.087083355 0.062087696 -0.042044483
0003b0 f5 bd 82 bd 06 18 71 bd 84 91 30 3d 74 de a5 3c
       -0.06383888 -0.0588608 0.043107525 0.020247675
0003c0 9d 57 c0 3c 08 78 d3 3d 58 5d a1 bc 8b 6a 3a bd
       0.023479277 0.103256285 -0.01969783 -0.045511764
0003d0 af 85 26 3b 00 f8 ca 3c a2 4b fd bd 1a 15 44 3c
       0.0025409271 0.024776459 -0.123679414 0.011967922
0003e0 c2 3e d9 3d 57 29 8f bd a5 f8 17 3c e7 af bf 3d
       0.10607673 -0.06990307 0.00927559 0.093597226
0003f0 d8 bf 3a 3c f8 40 58 3d c8 e9 81 3d a3 a7 5a bd
       0.011398278 0.052796334 0.06343418 -0.053382527

fc.2.bias f4 [64]
000000 cd 60 2e 3d 0c f3 80 bd 94 c6 10 3d 2e ff 50 bd
       0.042572785 -0.062963575 0.03534563 -0.05102461
000010 49 6e 1b bd 7e d6 a9 3c 57 81 72 3d 26 e7 85 3d
       -0.037946973 0.02073216 0.05920538 0.06538229
000020 a4 22 e0 bc 5d f3 8a bd c4 d6 67 3c 45 39 54 3d
       -0.027360268 -0.06784699 0.014150325 0.05181243
000030 28 05 34 3d 45 1e b0 3c a3 2b 6c 3d 5a e0 1d 3d
       0.04395023 0.021498809 0.057658803 0.038544036
000040 2f 65 78 bd 85 1c 89 bd fb 52 e5 bc d4 5d d8 3c
       -0.06064337 -0.06694893 -0.02799367 0.026411928
000050 41 dc a0 bd 98 21 d2 bc e9 3d 95 3d 2a 81 02 3b
       -0.0785451 -0.025650784 0.07287199 0.0019913414
000060 f2 76 3a 3d 12 55 55 3c 5f 44 11 bd 1b f3 65 bd
       0.04552359 0.013020771 -0.035465594 -0.056140047
000070 67 31 0f bd b7 73 9f bd 7e e7 1c bb 44 af f5 bc
       -0.034959223 -0.07785743 -0.002394169 -0.0299908
000080 3c 97 90 bd 0b d4 3f bd 3c 80 04 3d b9 90 93 3d
       -0.07060096 -0.04683308 0.032348856 0.07205338
000090 14 ef 13 3d b7 97 55 bd e5 3c 25 bd 20 21 13 bd
       0.036116675 -0.05214664 -0.040341277 -0.035920262
0000a0 73 86 0b bd 2e 20 40 3d e8 07 0c bd 80 16 5e 3d
       -0.034063768 0.04690569 -0.034187227 0.054220676
0000b0 6f 27 09 bd b4 5b 84 3d ea 54 7e 3c 8c 44 58 bc
       -0.033484872 0.064628035 0.015523175 -0.013199937
0000c0 60 91 e8 3c b7 16 93 bd fb f2 ab bc b7 46 6c 3c
       0.028389633 -0.07182067 -0.020989886 0.014421157
0000d0 e8 5b 9d bd f9 29 6c bd 1d 96 2f 3d b3 42 87 bd
       -0.07683545 -0.057657216 0.04286777 -0.06604519
0000e0 96 5f 7b 3d 19 d3 8f 3d f3 5b db 3b 32 ab 49 3c
       0.061370455 0.070226856 0.006694311 0.012308883
0000f0 bb 16 33 bd 5d 94 3f 3d fb 7c 86 bd 7b 79 ce 3c
       -0.04372285 0.04677235 -0.06566807 0.02520441
