checkpoints/inverse_dynamics.pth (torch, 101272 bytes, 4 tensors)

fc.0.weight f4 [128, 128]
000000 47 69 48 3d 9c 7b 2f bd ab 48 3f bc 29 08 fd 3c
       0.048928525 -0.042842492 -0.01167504 0.03088768
000010 22 fa b4 3d 30 b2 c3 bd 00 91 a4 bc c9 d2 55 3d
       0.088367715 -0.09555471 -0.020088673 0.052202974
000020 5f 47 8d 3d 52 d6 b5 3d c7 6e 0f 3d 2b bf 89 bc
       0.068983786 0.08878769 0.035017755 -0.016814789
000030 9f 6a c9 bc e4 48 84 3d 2d 33 92 bd 48 80 54 bd
       -0.024586974 0.06459215 -0.07138667 -0.05188015
000040 2f 8d 2e 3c 95 b9 39 bb 27 25 a6 bd 29 d3 ab bc
       0.010653778 -0.0028339375 -0.08112555 -0.020974712
000050 0b 7e 93 bd 23 87 39 3d 81 c0 48 3b 97 17 4b bd
       -0.07201775 0.045294892 0.003063232 -0.049583044
000060 3d fa 43 bd 17 f2 b5 bd 9d 97 d1 3c 08 a3 50 3c
       -0.047846068 -0.088840656 0.02558499 0.012734182
000070 35 79 3c 3d 08 5f e2 bc ec b2 d6 3b 10 15 1d bd
       0.04601403 -0.027633205 0.006552091 -0.038350165
000080 81 e8 07 bd c9 89 a9 bc 75 c5 ce 3c f0 5a 55 3d
       -0.033180717 -0.020695584 0.02524064 0.052088678
000090 4c 9c 90 3d 7e ca 94 bd 9a af 5a bd c6 59 9a bd
       0.07061061 -0.07265185 -0.053390123 -0.07536654
0000a0 f6 55 84 3d ef 94 88 bd b1 60 8f bd 8d 0a f0 3c
       0.06461708 -0.06669032 -0.07000864 0.029301906
0000b0 27 81 1d 3d 24 67 7b 3c 05 33 6a bd c3 78 8d 3d
       0.038453247 0.015344415 -0.057177562 0.06907799
0000c0 1f cd ac 3d 9c 20 91 bd 81 98 4a bd 07 b7 2b 3d
       0.08437561 -0.07086298 -0.049461845 0.041922595
0000d0 6a 1a 29 3d 09 e9 aa 3c 2b 91 88 bd 40 c0 7a bd
       0.041284956 0.020863073 -0.066683136 -0.0612185
0000e0 e6 8d 96 bd 23 4b 76 bb 75 cf 67 3c d1 af 08 bd
       -0.07351284 -0.0037581406 0.014148583 -0.033370797
0000f0 96 82 cb bc e7 af f5 3c 30 b8 6a bd 4f 48 f4 bc
       -0.024842542 0.029991103 -0.05730456 -0.029819636
000100 f5 ca 31 3d a4 fb 4f bd b2 7a aa bd 87 53 b2 3d
       0.043406446 -0.050777093 -0.083241835 0.08707338
000110 bd df 48 3d 18 79 14 bd 6d e9 c2 bd 1e 77 97 bd
       0.0490415 -0.036248296 -0.09517179 -0.07395767
000120 1e 31 e8 bb 3b d1 a4 3c 94 71 a1 bb 1f 64 c8 3c
       -0.0070859334 0.0201193 -0.0049268696 0.024461804
000130 cd f1 e9 3c 17 07 bb bd 96 7b 95 bd 8d 45 1a 3d
       0.028557682 -0.09132212 -0.07298963 0.037663985
000140 6f 9f bb 3d 7f 33 1e 3c e9 25 80 3d 0c 24 b0 bc
       0.09161269 0.009655832 0.06257231 -0.021501563
000150 9e ce 80 bd e1 c4 62 3d 2d 5d 82 3d 64 f4 74 3d
       -0.06289409 0.05536354 0.06365428 0.05980338
000160 c2 d4 8e 3d 35 a1 23 3d 61 16 ad 3d 62 4f a4 bd
       0.06974174 0.03994866 0.08451534 -0.080229536
000170 87 3a 45 bd 9b 0d 27 3d 28 98 7d 3d 01 6a 44 3c
       -0.04815152 0.04078446 0.061912686 0.011988164
000180 be 88 b7 3d aa 6b 48 3d a5 28 6a 3d cc 3b 91 bc
       0.089616284 0.0489308 0.057167668 -0.017728709
000190 1c 4c 8b 3c fb 2d 91 3c 3c 1a a0 bc 2b 26 13 3b
       0.017004065 0.01772212 -0.01954376 0.002245317
0001a0 70 10 3c ba c9 60 8d 3d 60 71 ee 3c 12 b8 39 bd
       -0.000717408 0.06903226 0.029106796 -0.04534156
0001b0 d2 78 13 3c f9 f6 c9 bb 8e bd 27 3d 5d 51 f2 38
       0.009000974 -0.0061634746 0.040952258 0.00011554614
0001c0 c0 70 d2 bc 92 dd b5 3d b5 a3 a4 3d 74 26 8b bd
       -0.025688529 0.08880152 0.08039037 -0.06794444
0001d0 45 a7 8b 3c ed 43 c7 3d 70 04 90 3d 48 21 91 3d
       0.017047534 0.09729753 0.070320964 0.07086426
0001e0 38 f3 59 bd ef 0d 7c bd 82 b1 54 bd af 19 c5 bd
       -0.053210467 -0.061536726 -0.051927097 -0.096240394
0001f0 a8 2b 84 bd 6b 63 50 bd dd 05 8c bd aa e0 6f 3c
       -0.06453639 -0.050876062 -0.06837056 0.014640966
000200 cd e6 55 3d 32 3d b0 bc 8c 1b f9 bd 2b cb ae bb
       0.052222062 -0.021513555 -0.12163457 -0.005334278
000210 88 a1 81 bd 3c 08 ad bd cc 2e bf 3b 50 2d 5a bb
       -0.06329638 -0.08448836 0.005834436 -0.0033291169
000220 5a 65 02 bd b3 37 5e 3d 85 68 47 3d 4b 82 b4 bc
       -0.031834938 0.054252338 0.048683662 -0.022034785
000230 3f 2e 72 bd 67 eb 70 3d ee 54 02 bc ef cd 01 bd
       -0.059126135 0.058818247 -0.007954819 -0.031690534
000240 c8 00 1f 3d 6e d5 4c bd a0 5d e8 3c 64 75 85 bd
       0.038819104 -0.05000823 0.028364956 -0.06516531
000250 d2 f7 79 3d f8 f7 51 bd 8b 9b 42 bd 10 23 77 bd
       0.061027355 -0.051261872 -0.04751162 -0.060336173
000260 ad a2 67 3d 0f 96 2b 3d c3 75 82 bd b1 24 7c bd
       0.056551624 0.041891154 -0.063701175 -0.06155843
000270 61 e5 8f 3c e5 37 90 bd aa 0a 2b bb e0 cd 8e bd
       0.017565431 -0.07041911 -0.0026098886 -0.06972861
000280 fb 6d 82 3d db fa 89 bd 5e 22 03 bd a7 a1 ba bc
       0.06368633 -0.067373 -0.032015197 -0.02278216
000290 47 7a 2d bd 95 37 ca 3c 12 59 86 bd 6c 85 bd 3d
       -0.04235294 0.024684707 -0.065599576 0.09253964
0002a0 d3 19 a9 bd ec dd 7c 3c 82 2f 91 bd e0 86 98 bd
       -0.08256879 0.01543377 -0.070891395 -0.074476
0002b0 08 c2 36 3c 04 d4 4e bd 3a 5e 70 bd ac 06 d7 bc
       0.011154659 -0.050495163 -0.05868361 -0.026248299
0002c0 1d 2b cd 3d 66 c3 43 bd f1 a6 87 bd 1c a6 b8 3c
       0.10017989 -0.04779377 -0.066236384 0.022540145
0002d0 74 ba 10 bd 49 2a 3d 3d 36 aa 7e 3d e6 c1 22 bd
       -0.035334066 0.046182904 0.062174045 -0.039735697
0002e0 0e 0d 32 bb b8 48 15 3d 70 4c b4 3d 6e 33 82 bc
       -0.0027168426 0.036446303 0.08803642 -0.015893664
0002f0 95 83 83 3d e2 86 5a bc e8 9a a0 bd f0 02 74 bd
       0.06421582 -0.013337823 -0.07842046 -0.059573114
000300 fd e0 fc 3c 78 57 5d bd 87 2c fe bd 9a 2b 81 3c
       0.030869002 -0.054038495 -0.12410837 0.015767861
000310 32 00 c0 bd 9f 46 a7 3d 04 a2 9f 3d 8a 04 ee bd
       -0.09375037 0.08167767 0.07794574 -0.116219595
000320 29 8d c0 3d f5 13 ff 3c 83 83 5d 3d 5b 0a 02 bd
       0.09401924 0.031137446 0.054080497 -0.031748157
000330 07 b9 6a 3d 07 6e 00 3e d4 24 4e bd 19 5e a0 bd
       0.057305362 0.12541972 -0.05032809 -0.07830448
000340 31 92 47 bd f4 af c3 3c 37 6c b0 bd 85 10 90 bd
       -0.048723403 0.023887612 -0.0861439 -0.07034401
000350 fd 3f 1d bd 8a 8c 92 bb 84 2c 81 bd 69 b4 a2 3c
       -0.038391102 -0.00447232 -0.06307319 0.019861417
000360 a6 c8 42 bc 50 07 a9 bc 58 19 a9 bd 3b 1d 66 3d
       -0.011888659 -0.02063337 -0.08256787 0.05618022
000370 ed 62 b9 bd 6a 20 a6 bd 9e 8c 92 bd ee cd a6 3d
       -0.09052072 -0.08111651 -0.07155727 0.08144747
000380 63 64 9e bc 45 a0 3f 3d 75 cf 6c bc 2d 2a 63 3c
       -0.019334977 0.046783704 -0.0144537585 0.013865036
000390 85 38 73 3d f4 fc a7 3d 5a f6 ac bd bf b2 fa bc
       0.059380073 0.08202544 -0.08445425 -0.03060281
0003a0 a3 3b e2 3c a9 58 42 3b 30 5c 2e 3d 06 86 93 bd
       0.027616328 0.0029654896 0.042568386 -0.07203297
0003b0 36 62 2d bd 12 6d 59 3c 94 ce aa 3d cb 78 0b 3d
       -0.04232999 0.013270633 0.08340183 0.034050744
0003c0 d0 16 6e 3d 47 d3 05 bd 0a 5b a8 bd 1b 90 2f bd
       0.058127224 -0.032672193 -0.08220489 -0.04286204
0003d0 94 4b 04 3d 43 73 8d bd 4e d3 8f 3d 28 93 9c bd
       0.03229864 -0.0690675 0.07022725 -0.07645255
0003e0 31 61 59 bd da 69 36 3c b5 58 8d bc d2 ec 2a bd
       -0.053071205 0.011133635 -0.017254213 -0.041729756
0003f0 6f 9a dd bc b6 b3 bf 3d 24 3a b4 bd d2 29 87 bc
       -0.027051179 0.09360449 -0.08800152 -0.016499434

fc.0.bias f4 [128]
000000 71 2b e9 3c f1 5c 0f 3d 63 db 54 bc 81 9a e4 bc
       0.028463097 0.035000745 -0.012991759 -0.027905704
000010 a1 ed 91 bd 76 c2 b0 bb 84 a0 a6 3b 95 89 69 bd
       -0.07125402 -0.0053942753 0.005085053 -0.057015974
000020 77 ec 38 3b c3 33 77 bd bb b6 16 3d 67 54 08 bd
       0.0028217116 -0.0603521 0.03679536 -0.033283617
000030 00 85 6e bd 90 07 a8 3d 81 d7 96 3d b1 d3 53 bd
       -0.058232307 0.082045674 0.07365323 -0.051715557
000040 01 bc 96 3d 0c 89 8b bd 47 53 96 bd 8b b0 95 bd
       0.07360078 -0.06813249 -0.07340103 -0.073090635
000050 ac a9 a6 3d 04 9a 3b 3c 6b 6c b3 3d 9e 35 4e bd
       0.08137831 0.011450294 0.087609135 -0.050344102
000060 0a 69 c4 bd 2d f0 d1 3c fb f3 1f 3d 4a ad 90 bd
       -0.09590347 0.02562722 0.039051037 -0.07064302
000070 02 57 96 bb 04 f9 08 bd 31 b5 2e bd 42 b0 cb 3d
       -0.004588009 -0.033440605 -0.042653266 0.09945728
000080 ed 26 46 3d 29 48 71 3d 2b f6 b5 3d 82 ef b2 3d
       0.048376966 0.058906708 0.088848434 0.08737089
000090 b1 44 2a 3d 59 18 99 3d c0 9e 4a bd bc c8 91 3c
       0.041569415 0.07475347 -0.049467802 0.017795913
0000a0 6d 0a 83 bd 7c 92 c8 3b 6c 96 f6 bd 9a 9d 4d bd
       -0.06398473 0.006120978 -0.120404094 -0.05019913
0000b0 7a ba 4c bc 86 8f 2c bd c5 a7 96 3b e4 e4 bc bd
       -0.012495631 -0.042129062 0.0045976364 -0.09223345
0000c0 8f a1 cc bd e5 ad 54 bd 7b b7 8a bd 41 d3 88 3d
       -0.09991752 -0.05192365 -0.06773277 0.066809185
0000d0 05 ff 02 3d d0 01 20 bd c7 b2 c8 bd 7b 49 98 bb
       0.031981487 -0.03906423 -0.09799724 -0.0046474314
0000e0 7e bd a6 bc e7 38 22 3c 31 4e 5c ba 22 a8 98 bd
       -0.020354029 0.009901262 -0.00084039854 -0.07453944
0000f0 51 ae 88 bd 2c b1 d4 bd b8 87 87 3d c0 81 bf bc
       -0.06673873 -0.10385355 0.06617683 -0.0233773
000100 6d bd 48 bc 85 93 5d 3d b4 ab 9c 3d ba 80 df 3d
       -0.012252194 0.054095764 0.07649937 0.109132245
000110 36 dd be 3c fc f7 a7 3d e9 77 af bc 2a b9 c7 3d
       0.023298841 0.08201596 -0.021419482 0.09752114
000120 28 55 ec 3c 92 27 c0 bd 96 26 52 bd ca 1e 3b 3d
       0.0288492 -0.093825474 -0.05130633 0.04568366
000130 49 0b bf bd 25 7d 5b 3d 7b 57 a0 3d 0e 01 3a 3c
       -0.09328324 0.053586144 0.078291856 0.0113527905
000140 77 89 ac 3c e4 30 3c 3d 2f c9 41 bc 4a 6e 3f 3d
       0.021061642 0.045945063 -0.011827751 0.04673604
000150 8a d8 ab bd ae 5c 7b 3d 53 57 b3 bd 9b 85 21 3c
       -0.08390911 0.061367683 -0.0875689 0.009858514
000160 0e da d2 bd aa 12 13 bd 0a 6c 74 3c f8 dc 03 3d
       -0.10295497 -0.03590647 0.014918337 0.032193154
000170 00 49 16 bd 45 5f 85 3d 55 ad eb bc eb ec 4e 3d
       -0.036690712 0.06512312 -0.028769175 0.05051891
000180 0c fd a3 bd c2 e2 18 3d cb 0b e3 bd 06 57 72 3c
       -0.08007249 0.037325628 -0.11086234 0.014791256
000190 f4 b4 8f bc 7f de 43 3d 17 19 0b 3d 6f 87 89 3d
       -0.01754234 0.04781961 0.033959474 0.06715285
0001a0 9e 7a 6b bc bb bf 11 3d 27 69 b0 3d 90 e8 5a bd
       -0.014372496 0.03558324 0.08613806 -0.053444445
0001b0 df 65 a1 bd 5a 91 1c 3d c8 25 bd 3d 1d f6 24 3d
       -0.078807585 0.038224556 0.09235722 0.040273774
0001c0 1f 1b 6c 3d 16 b5 92 3d fd 3c b0 bd 76 53 94 3c
       0.057643052 0.07163446 -0.086053826 0.018106204
0001d0 fd a2 b3 3d e6 e1 cd bd f0 48 40 3d b7 e5 88 bd
       0.08771322 -0.10052852 0.04694456 -0.0668444
0001e0 14 c2 41 3b f2 2d e6 bc 8d 07 89 bd c4 57 8b bd
       0.0029565142 -0.02809808 -0.06690893 -0.06803849
0001f0 90 86 49 3d de 20 04 3c b1 c0 20 3d 94 e5 b6 bd
       0.049200594 0.008064477 0.039246265 -0.08930507

fc.2.weight f4 [64, 128]
000000 11 f7 54 3c 1f b7 95 bd 0d 07 d4 bc 7a 84 9a bc
       0.012998358 -0.07310318 -0.025882268 -0.018861998
000010 3c 20 1e bd 22 61 c6 3d 70 32 63 3d ce 31 86 3d
       -0.03860496 0.09686495 0.055468023 0.06552468
000020 a3 82 54 3c 78 0e c4 bd 5f e6 a3 3c 40 cb fb 3c
       0.012970599 -0.09573072 0.02000731 0.030736566
000030 58 a0 b8 bd ac 8d 89 bd e7 74 1b 3d ca 5e 8d bd
       -0.09014958 -0.06716475 0.037953284 -0.06902845
000040 d9 26 92 3d 9b 11 38 3b 22 37 5a bd 4a 51 a7 3c
       0.07136316 0.0028086666 -0.053275235 0.020424504
000050 4d 78 49 3d df 08 81 bb 5b 59 90 bd e6 f4 e8 3c
       0.049186993 -0.003937825 -0.07048293 0.02843709
000060 8e 6c 39 bc 99 e7 65 bd 17 e9 d3 3c 6f f1 58 bb
       -0.011317385 -0.05612907 0.025867982 -0.003310289
000070 62 8e ea 3c 5e b0 98 bd 77 0b 13 bc f3 d1 33 bd
       0.028632347 -0.07455514 -0.008974901 -0.043901395
000080 11 b0 0f 3d 3e ef 73 b9 87 6c 5e 3d 27 1a c9 bd
       0.03508002 -0.0002326341 0.05430272 -0.09819441
000090 27 aa f8 3d 24 89 cb bd 0b bf 57 bd 4f 17 2a bd
       0.12141829 -0.09938267 -0.052672427 -0.041526135
0000a0 33 18 56 bc 18 a0 21 3d b2 08 b1 bd 72 6f d7 3b
       -0.013067293 0.039459318 -0.086442366 0.0065745646
0000b0 ad da a7 bd 06 fa 46 3d 43 42 aa bd 5f a6 00 bd
       -0.08196006 0.048578285 -0.0831342 -0.031408664
0000c0 ea ff aa 3d 13 36 bc 3a bb b0 9b bd 75 99 49 bd
       0.08349593 0.0014359377 -0.07602068 -0.049218614
0000d0 5d 5e ac bd ac 68 07 bd 4d 8b 91 3d b6 f7 82 bd
       -0.08416436 -0.033058807 0.07106648 -0.06394903
0000e0 19 7e 70 3d 10 99 1a be 14 49 4f 3e 5a 58 2d 3c
       0.058714006 -0.15097451 0.20242721 0.010580147
0000f0 0c 33 b0 bd 81 76 88 3d 05 a2 fc bc ad a4 14 3d
       -0.086034864 0.06663228 -0.030838976 0.03628986
000100 1d ae 98 3d be 3e bc 3d 55 46 e5 bd 61 c4 ae bd
       0.074550845 0.091916546 -0.111950554 -0.0853355
000110 e0 78 45 3d f9 46 f6 3c 45 07 cd bc 1c 6b 85 bd
       0.04821098 0.03006314 -0.02502788 -0.0651457
000120 2d ae 62 3d d6 21 3d 3d 79 d1 24 3c 6f b3 3c 3d
       0.05534189 0.046174847 0.010059708 0.04606956
000130 80 5d 5d 3d 8c ea d7 bd 48 fe de bc 9d 6b 8d 3d
       0.054044247 -0.10542783 -0.02722086 0.06905291
000140 64 c3 0c be 7d 0f 5d bd e5 d4 82 3d a3 8b b9 3d
       -0.1374641 -0.05396985 0.06388263 0.09059837
000150 36 70 76 bd 61 61 2e 3d e0 5a 47 3d 7e 98 bf 3d
       -0.060165606 0.042573337 0.04867065 0.093552575
000160 9b d9 8b bd a3 37 91 3d 9b 6a 97 3c 1d 9d 8a 3d
       -0.06828614 0.0709069 0.01848345 0.06768248
000170 77 28 8e bc 7f 3d c0 bd 2f 17 cf bc 56 b2 84 3d
       -0.01735328 -0.093867294 -0.02527961 0.064793274
000180 c1 01 af 3d 04 9c 1a 3d 17 6e 48 bd a3 e5 7b bc
       0.085452564 0.037746444 -0.048933115 -0.015374574
000190 f4 69 2d 3d 48 22 c7 bc 22 ed b8 b9 50 95 1d 3d
       0.042337373 -0.024308339 -0.00035271893 0.038472474
0001a0 63 12 76 bd 7c a2 98 3d b8 a4 82 3d be 4d b1 bd
       -0.06007613 0.074528664 0.06379074 -0.08657406
0001b0 c4 c1 82 3d fe 08 c7 bb 03 80 21 bd b4 7e 89 bc
       0.06384614 -0.00607407 -0.039428722 -0.01678405
0001c0 60 54 f0 bc 10 be 19 3c df 5c 3f bd c9 11 f1 bb
       -0.029337108 0.009383693 -0.04671943 -0.0073568565
0001d0 69 27 ce bc 07 eb 27 3d 56 57 16 bc d1 6c af 3c
       -0.025165277 0.040995624 -0.009176096 0.021414192
0001e0 18 09 be bd 2a 6a 88 bc 78 a4 78 3c 1a 6e 19 3d
       -0.09279078 -0.016652185 0.015175931 0.037458517
0001f0 6b c9 1c bc 04 26 30 3c 85 bc 86 3d c3 71 bb 3c
       -0.009569506 0.010751251 0.06578926 0.022881394
000200 18 47 0d 3d 41 62 bc 3d b6 22 c0 3a 77 e8 63 3d
       0.03449163 0.09198428 0.0014658782 0.055641618
000210 03 8d 7b bc bb fa 54 bd c5 2b de bd 56 f7 99 bd
       -0.015353444 -0.051996928 -0.10848192 -0.07517879
000220 bd f4 68 bd e0 94 ae 3c da ef 81 bc 82 88 57 3d
       -0.056874026 0.021311224 -0.01586144 0.05262042
000230 43 d1 87 3d c3 51 b1 3d cd 0d f4 3c 14 d1 e5 bc
       0.066317104 0.08658173 0.029791737 -0.028053798
000240 3b 72 4e 3d 96 c1 11 bd e5 b8 15 bd 67 f0 61 3d
       0.050401907 -0.03558501 -0.036553282 0.055160906
000250 34 b9 c1 bc 95 c9 e7 3c 0c 8a 91 3c 42 fc 19 3d
       -0.023647882 0.028294364 0.017766021 0.037594087
000260 ed 68 a2 3d 79 ab ef 3c de 73 8d 3d c6 07 86 3b
       0.07930169 0.02925657 0.069068655 0.004090282
000270 d5 c3 1a bd ac 41 2f bd 41 8e d2 3d 2a ed b3 3b
       -0.037784416 -0.04278724 0.10281039 0.0054909186
000280 9e 1f 1f bd 39 07 bc 3d 42 a8 f4 bb 65 b1 29 3c
       -0.038848512 0.09181065 -0.007466347 0.010357236
000290 52 b3 25 3d 83 b3 fe bc 8d ee 67 3d 81 2a 86 bd
       0.040454216 -0.031091457 0.056623984 -0.06551076
0002a0 31 da 98 3d 39 63 87 bd 55 75 33 bd b7 55 54 bd
       0.07463492 -0.06610722 -0.04381307 -0.051839557
0002b0 ce ad 4a 3d ab fc b4 bc c7 59 a7 3d c8 23 6d 3d
       0.04948216 -0.022093138 0.081714205 0.05789545
0002c0 64 54 b3 bb e5 2c bf 3d 21 ef 8e 3d ce fe ec 3d
       -0.0054727066 0.09334735 0.06979204 0.11572038
0002d0 8f 4f c2 3c 32 c2 67 3b 7c aa 18 be a6 1a ca 3b
       0.023719577 0.0035363552 -0.14908785 0.0061677275
0002e0 0d cf 9b 3d 60 c0 32 3d d1 2e e1 bd 08 99 56 bd
       0.07607851 0.043640494 -0.10995258 -0.052392036
0002f0 58 f7 ab 3d df 15 73 bd 52 74 9f bc 9a 1a 1b bd
       0.083967865 -0.05934703 -0.019464646 -0.037867166
000300 fc 04 bc bd 05 6c ee bc e9 ea 38 bd b6 1a ab 3c
       -0.09180638 -0.029104242 -0.045145903 0.02088676
000310 dd 29 80 bb 4f 12 e1 bc 1a 9a 9c bd e0 7e c3 3d
       -0.0039112405 -0.02747455 -0.0764658 0.09545684
000320 1b a0 a4 3c 57 5f 25 3d 51 27 d6 3c e3 bc fc bc
       0.020095875 0.040374126 0.026141794 -0.030851787
000330 31 94 b6 bd 8d b6 fe 3d df 64 58 bd 31 3a 0f bc
       -0.08914984 0.124371625 -0.052830573 -0.008741901
000340 4d 2e ac bd 41 6c 00 3b 54 87 ab 3d 1e 22 7d bd
       -0.08407269 0.0019595774 0.08375421 -0.061800115
000350 cc ef 26 3d 05 27 9c bc dd f6 74 bd 74 eb 42 bc
       0.040756032 -0.019061575 -0.05980574 -0.011896957
000360 75 71 85 3d 23 12 fe bb 57 26 33 3c 20 25 87 bd
       0.06515781 -0.007753627 0.010934434 -0.06598878
000370 76 dd ac 3d 5b e2 98 bc 00 a1 7a ba 2e 15 84 bd
       0.08440678 -0.018662622 -0.0009560734 -0.06449352
000380 68 a4 97 3d b1 5e 0a 3c 5f a0 87 bd e3 21 c4 bc
       0.07404405 0.008445428 -0.06622385 -0.02394194
000390 c5 76 42 3b 62 db 97 bc 9c 8a 90 bd 9f 10 29 3d
       0.0029672843 -0.018537227 -0.07057688 0.041275617
0003a0 69 0b 81 bd ba 9e 97 3d 9e 1c 10 3d ba 1a 3d 3c
       -0.063010044 0.074033216 0.03518354 0.011542017
0003b0 a0 bd b7 bd f4 ea 48 3d 69 0c 21 bd 28 48 44 3d
       -0.08971715 0.049052194 -0.039318476 0.047920376
0003c0 db c1 ae 3d 32 50 9f 3c a9 4d dc bc 70 d9 ad 3d
       0.08533069 0.01944742 -0.0268925 0.084887385
0003d0 22 e3 dd 3d 13 87 92 bd f9 5a bc 3c 44 9c 60 3c
       0.10834338 -0.071546696 0.022992598 0.013709132
0003e0 d0 8d fa bc df e0 89 bd 93 b6 34 3d e1 17 2b bc
       -0.0305852 -0.06732344 0.04411943 -0.010442705
0003f0 cf 5b 1a bd fb d6 6e bd 23 10 79 3d ff 74 88 bd
       -0.03768521 -0.05831049 0.060806405 -0.0666294

fc.2.bias f4 [64]
000000 34 e8 3b bd 3d 1c 72 bd ed 75 55 bd 16 d4 d0 bb
       -0.045875743 -0.05910896 -0.052114416 -0.006372939
000010 df 69 26 3c 38 33 8a bd aa e9 bf 3c 20 f8 43 3d
       0.010157078 -0.067480505 0.02342685 0.047844052
000020 0f dd 53 3d d8 13 7a 3b 69 b3 6d 3d f0 da c7 bc
       0.05172449 0.00381588 0.058032427 -0.02439639
000030 82 17 1c 3d ba 6d 82 3d a4 0b ab 3c 79 87 d3 bc
       0.038108356 0.06368585 0.020879574 -0.025821434
000040 64 ff 77 3d 64 05 a9 3d ed 8b 05 3d da 00 a6 3d
       0.060546294 0.08252981 0.032604147 0.08105631
000050 01 ad c6 3d 1f 38 2a bd e8 4a 46 bb 33 f9 36 bc
       0.097009666 -0.041557427 -0.003025705 -0.011167812
000060 b4 72 99 bd 5f 44 fb bc 6f 4f 37 39 4b 5a 64 3d
       -0.07492581 -0.03067225 0.00017481831 0.055750173
000070 4c 3c 6d 3d bb 0f a9 bd 28 04 0f bc 55 15 76 bd
       0.05791883 -0.082549535 -0.008729018 -0.060078938
000080 f8 f1 45 bc 0c ea 83 3c 3c 0a b7 3d 8d 7f 4d 3d
       -0.012081616 0.016102813 0.08937499 0.05017047
000090 37 0d 00 3d 7c 69 71 3d ab ce 32 3d ee 24 a2 3d
       0.031262603 0.05893849 0.043654125 0.079172
0000a0 0f 5f 29 bd 1e d3 86 bc 12 82 96 bd 44 27 d3 bc
       -0.04135042 -0.01645809 -0.07349028 -0.02577556
0000b0 d6 b1 2e bd ba a0 32 bd 5f ae 14 bd fe 91 49 3d
       -0.042650066 -0.043610312 -0.036299106 0.049211495
0000c0 6c 32 8d bd 68 46 cd bb 89 cb 38 bd c5 91 2d bd
       -0.06894383 -0.0062644966 -0.04511598 -0.042375345
0000d0 4f 67 9d 3b d8 49 67 bd 5b ad d7 3d f8 08 36 bd
       0.004803575 -0.056466907 0.10531112 -0.044442147
0000e0 70 48 49 bd ae bb 27 bd 2d 08 5b bd e3 cc 96 bd
       -0.049141347 -0.04095047 -0.053474594 -0.07363298
0000f0 bb 00 2b bd da ff 9e bd bf 37 bf 3c 20 7a 7e bc
       -0.041748744 -0.077636436 0.023342011 -0.015532047
